ml/pill_the_best_2.pt (torch_old, 2640 bytes, 2 tensors)

module.nn_a.0.weight f4 [22, 22]
0	0x405fac96	3.4949088
1	0xbff86b67	-1.9407777
2	0x3faaae05	1.3334357
3	0x40767c04	3.8513193
4	0xc0c83060	-6.255905
5	0x40388606	2.8831801
6	0xbf1f24b6	-0.6216539
7	0xbeda93aa	-0.42690784
8	0xbf3a47c2	-0.72765744
9	0xbf4deb45	-0.8043712
10	0xc05c52df	-3.442558
11	0xbf5bc04a	-0.85840285
12	0xbee70d41	-0.451273
13	0x4070cc70	3.7624779
14	0x400716ab	2.1107585
15	0x3db22e09	0.08700187
16	0xbf50c2bf	-0.8154716
17	0xbf9a47cd	-1.2053162
18	0x40310263	2.7657707
19	0x4065dc1b	3.5915592
20	0xc09113ab	-4.533651
21	0xc022b24f	-2.542133
22	0xbfdde679	-1.733596
23	0xbf7a7cb4	-0.9784653
24	0x3f97b552	1.185221
25	0x4094d5fa	4.65112
26	0xbe999309	-0.2999499
27	0xbff7c115	-1.9355799
28	0x3e97d6df	0.2965612
29	0xbfbbc8a1	-1.4670602
30	0xbf333e5e	-0.7001704
31	0x3f760ac2	0.96110165
32	0x3fd256ea	1.6432774
33	0x40675f3d	3.615188
34	0x408614c1	4.1900334
35	0xc002802b	-2.0390728
36	0xc03f05d8	-2.9847317
37	0x403288c6	2.789598
38	0xc073e7b9	-3.8110182
39	0x401a7dd0	2.413929
40	0x40477157	3.1162927
41	0xbfe90470	-1.8204479
42	0xc0398ebd	-2.899337
43	0xc02c4a70	-2.6920433
44	0x3f9a23c1	1.2042161
45	0xc081b48b	-4.053289
46	0x3f5e16e7	0.86753696
47	0xbea6a3b0	-0.3254676
48	0x3f474205	0.7783511
49	0x4026c83e	2.6059718
50	0xbf115107	-0.5676426
51	0x3f03563d	0.51303464
52	0x3ed54ef8	0.4166181
53	0xbf39f3c0	-0.7263756
54	0x3fae8794	1.3635125
55	0x4085ca9c	4.1809826
56	0xc078ea3a	-3.889296
57	0xc03efef7	-2.9843118
58	0x405ae488	3.4201984
59	0x3fccc22d	1.5996758
60	0xbfa62741	-1.2980729
61	0xc0689374	-3.6339998
62	0xbf9ce233	-1.225653
63	0xc0078703	-2.1176155
64	0xbfc9f254	-1.5777078
65	0x403ef54c	2.9837217
66	0x3ee6dc8d	0.45090142
67	0xc05302e0	-3.2970505
68	0x4001cd02	2.0281377
69	0x40174de6	2.3641295
70	0x3e53406c	0.20630044
71	0x40054e60	2.0829086
72	0xbc71bb77	-0.014754168
73	0xbf5d863b	-0.86532944
74	0xbf29b864	-0.6629698
75	0xbecec1e2	-0.40382296
76	0x40154b46	2.3327193
77	0x4066bf58	3.6054287
78	0xbf90137d	-1.1255947
79	0x3f6f8a90	0.93570805
80	0xbffd8338	-1.980567
81	0xc0829f13	-4.0819182
82	0xbf9a9f98	-1.2079954
83	0x3f55597d	0.83339673
84	0x3faf472d	1.3693596
85	0xbfc9abd4	-1.5755563
86	0x3fcd7d7d	1.6053921
87	0x3eba7d86	0.36423892
88	0xc029775a	-2.6479096
89	0xbfcdab9e	-1.6067998
90	0x3f51cc38	0.8195224
91	0xbfe5c06b	-1.7949346
92	0x4079b69e	3.901771
93	0xbe923d21	-0.28562263
94	0x3f5fe230	0.8745451
95	0x3f78555b	0.9700524
96	0x3f7fba80	0.9989395
97	0xbed3bc61	-0.4135466
98	0xc088d233	-4.275659
99	0xbfcb08ed	-1.5862099
100	0x402d9fe0	2.712883
101	0x40613d84	3.5193796
102	0x3ff57160	1.9175224
103	0x403d8368	2.9611454
104	0x404f6d8d	3.2410614
105	0xc03f0dcb	-2.9852169
106	0xc05511a8	-3.3292027
107	0xc07a98c1	-3.9155734
108	0x4059479c	3.3949957
109	0xbee9c0f7	-0.45655033
110	0x4051d67f	3.2787168
111	0xc0b03013	-5.5058684
112	0x3f8616ef	1.0475749
113	0x4041ff1a	3.0311952
114	0xc0907850	-4.5146866
115	0x40476eef	3.1161458
116	0xbeca7c51	-0.3954797
117	0x3ecd2a18	0.40071177
118	0x3e9e44a7	0.30911753
119	0xbf8baeab	-1.091268
120	0xc070793f	-3.7574003
121	0x3fa718ea	1.3054478
122	0xbfecb2b9	-1.8492042
123	0xc0576f72	-3.366177
124	0x4061b97a	3.5269456
125	0x4000fe23	2.0155113
126	0x4056abd4	3.3542376
127	0xc037ef7a	-2.8739915
128	0x4056f948	3.358965
129	0xbfa9252f	-1.3214473
130	0x401fae73	2.4950225
131	0xc0720f4c	-3.7821836
132	0x3f8a0264	1.078198
133	0xbf9fcc5b	-1.2484239
134	0x3f89b352	1.0757849
135	0x3fd202a8	1.6407061
136	0xc06562a2	-3.584145
137	0x3f15a68a	0.58457243
138	0x3fb79e05	1.4345099
139	0x3fd28704	1.6447453
140	0x3f93a8b7	1.1535863
141	0xbfd5db0a	-1.670747
142	0x3fb1fee4	1.3905911
143	0xc087d105	-4.244265
144	0xc020c154	-2.5117998
145	0xc04dd2ab	-3.2159832
146	0x3fdb0d74	1.711348
147	0x404d9296	3.212072
148	0xc071ee13	-3.780156
149	0x40532d2a	3.2996316
150	0x40472ee3	3.1122367
151	0xc0410ea7	-3.0165193
152	0xbf4b6d94	-0.7946408
153	0x401cc058	2.4492397
154	0x3fdff75a	1.7497361
155	0xbf8784e2	-1.0587428
156	0xbe3caf82	-0.18426326
157	0x40796470	3.8967552
158	0xc0845901	-4.1358647
159	0xbf1f2df8	-0.6217952
160	0xbec47e0a	-0.3837741
161	0xbf402b8b	-0.7506644
162	0xbf176413	-0.59137076
163	0x3d9d177c	0.07670495
164	0xc083aaa1	-4.1145787
165	0xbeca85b2	-0.39555126
166	0x3e872d0a	0.2640155
167	0x408c1911	4.37806
168	0xc025914b	-2.586993
169	0xc04ffb81	-3.2497256
170	0x402ab222	2.6671224
171	0x40444946	3.0669723
172	0xbfba949f	-1.4576606
173	0xc05f8b39	-3.4928725
174	0x4015abe5	2.3386166
175	0x4060d5f3	3.5130584
176	0xbfc3d42b	-1.5299124
177	0x403a96ba	2.9154496
178	0xbfa3e4cf	-1.2804202
179	0xc03c4a5b	-2.9420383
180	0x40938c4c	4.610876
181	0xbf97db56	-1.1863811
182	0xbf80762b	-1.0036062
183	0xbf8a7b3e	-1.081886
184	0xbf65c8b0	-0.8975935
185	0x3fe0286a	1.7512333
186	0xbe039b57	-0.12852226
187	0xc0328336	-2.7892585
188	0x407ce457	3.9514368
189	0xbf54c150	-0.8310747
190	0x403e93be	2.9777675
191	0x4007b3c2	2.1203465
192	0x3fcf185c	1.6179309
193	0xc030a4a8	-2.7600498
194	0x404e8f44	3.2274942
195	0x3fc2d72b	1.5221914
196	0xbfc3e953	-1.530558
197	0xc0519846	-3.274919
198	0x402f2d46	2.7371383
199	0xc0527f0d	-3.2890046
200	0x3f6f3cfc	0.9345243
201	0x4052561c	3.2865057
202	0xc0c08330	-6.016014
203	0x402809de	2.6256022
204	0xbd5e7e7f	-0.054319855
205	0x3f2085eb	0.6270434
206	0x3b47bc56	0.0030477247
207	0xbf95672b	-1.1672109
208	0x40606a85	3.5065014
209	0x3d9560d3	0.072938584
210	0x406fd5c0	3.7474213
211	0xc08488f6	-4.141719
212	0xc032ff5e	-2.7968364
213	0x402d8ca1	2.7117083
214	0x4030255b	2.75228
215	0xc0647d26	-3.5701385
216	0xc0725b79	-3.786833
217	0xc0271cd4	-2.6111345
218	0x3f587123	0.8454763
219	0x40681c3f	3.626724
220	0x3f710398	0.9414611
221	0xc0820bb9	-4.063931
222	0x3ff7bd9c	1.9354739
223	0x3fa45364	1.2837949
224	0xbf8642ff	-1.0489196
225	0x3ff67b4d	1.9256378
226	0x3f25f8c5	0.6483272
227	0x3ff5106f	1.914564
228	0x3f9fee00	1.2494507
229	0xbfe0b50b	-1.755525
230	0x3f079999	0.52968746
231	0xc0708c5d	-3.758567
232	0x3f4c13d1	0.7971774
233	0x3fdb66b9	1.7140723
234	0xc01d870d	-2.4613678
235	0xc06915b0	-3.6419487
236	0x400230dc	2.0342321
237	0x402de115	2.716863
238	0xc0091906	-2.1421523
239	0x40251235	2.5792363
240	0x40143a31	2.3160517
241	0xc06e6d8c	-3.7254362
242	0x3ea9a180	0.33131027
243	0xbf4e2a66	-0.80533445
244	0x3f61109b	0.8791596
245	0x405f6e4e	3.4911075
246	0xbf43763b	-0.7635228
247	0x3d09f789	0.033683334
248	0xbe038e0b	-0.12847154
249	0xbfeef027	-1.8667039
250	0xbf9ebe56	-1.2401836
251	0x3e987d51	0.2978311
252	0xc005dfcc	-2.0917845
253	0xbf5ad580	-0.85482025
254	0xc040ef77	-3.0146158
255	0x3fd680c3	1.6758045

module.nn_a.0.bias f4 [22]
0	0xbf10dc30	-0.5658598
1	0x3fec0543	1.8439106
2	0xbefe3290	-0.4964795
3	0x3f7cbc50	0.9872484
4	0x3ee77975	0.45209852
5	0xbf8f7514	-1.1207604
6	0xbf97e888	-1.1867838
7	0x3cd20caa	0.025640804
8	0x3f88dbfc	1.0692134
9	0xbf73bf05	-0.9521335
10	0xbfb77aa0	-1.4334297
11	0x3ff23643	1.8922809
12	0xc008e4b1	-2.1389582
13	0xbf588d66	-0.84590757
14	0xbef5f18b	-0.48035845
15	0x3f3dd88b	0.74158543
16	0x3f8fe987	1.1243142
17	0x3fdcb10d	1.7241532
18	0x3fcaae6e	1.5834482
19	0x3ebea239	0.3723314
20	0x3e9e7017	0.30944893
21	0xbed784d7	-0.42093536
